312-李友国/weekThree/model.pth (torch, 18253 bytes, 4 tensors)

embedding.weight f4 [28, 20]
0.9012514 -0.33611587 0.34238052 -1.269292 1.3600105 -1.4361622 0.32299438 -2.4223144
0.43292293 -0.7850451 0.5277101 -0.4241313 -0.64750344 -0.9972182 -0.9622973 0.8762962
-0.28824157 -1.02869 0.4939574 2.1961005 1.4855332 -1.4073632 0.78209865 1.2683214
2.1277816 0.032029185 -1.3481716 0.9120904 0.22459365 1.0599731 -0.10483585 0.012472556
1.4089653 2.270803 1.8413911 1.7004662 1.2910613 -1.8971093 -0.53736466 1.1662682
-0.4052412 1.3204826 -1.8272632 1.7586673 0.035458975 1.5245917 0.10539081 0.121064514
1.4667592 1.4585524 -2.1010013 -3.440199 0.99559796 0.11143472 0.0025770613 0.8876897
2.05271 0.057882845 -0.36181778 -1.7337223 0.96985227 -0.025713291 -0.14098974 -0.8387843
1.5674334 0.12520224 -0.7765142 0.9684272 1.4476812 -0.45404103 0.3872141 -0.7471292
0.582067 1.1449826 1.0592641 2.294483 0.7962307 -0.8849924 -1.414303 -1.1096141
-1.330639 -0.52060324 1.0771819 -1.8497205 -0.37124965 0.86935395 1.7896907 0.0054553486
1.3388461 0.73579645 0.3771782 -0.8400049 -0.5094399 -0.5397658 0.93044806 -0.601112
-0.025614014 -1.1504129 0.697793 0.6525195 -2.3764923 -0.8883861 0.045141898 1.4843323
-1.2853676 1.5774769 -0.31382945 -0.7224149 0.64094204 0.28571284 0.3289341 -0.6531785
0.18088591 -0.82683855 -0.45739752 0.27242017 -0.28268242 -0.5161058 0.80059457 0.5715564
0.66001666 0.09810575 -1.7805511 0.36205792 0.7196356 -0.30088285 1.411877 -0.119628415
-0.097784005 -1.1098883 -0.5231757 1.9129865 -0.4628859 -1.2827219 0.153393 0.7499148
-0.026490297 -0.034320645 0.9279049 -0.21896441 0.92451817 0.75451595 -1.2697413 0.73480064
-0.294341 -1.5290775 -0.16860777 -0.42664373 -0.5185982 2.4653845 0.12677763 -1.2077485
-0.68605274 -0.8909363 -0.29261795 0.17479123 -0.4913513 0.20442222 0.4592297 0.19313265
-0.11975794 0.2869652 0.4326456 1.4443536 -1.0061837 0.04322527 0.17464381 -0.97988284
0.17212105 0.8683797 0.34180546 0.30988416 0.7794863 0.59666985 0.97686446 0.20087275
0.06154673 1.5144638 0.6950819 1.3073523 -0.87366897 -0.07417206 2.0451832 1.1815678
-1.2770754 -0.6501997 0.0028906 1.5826317 0.36268616 0.46444425 1.4148256 0.19980216
-1.615263 -0.839086 2.0054882 -0.5768971 0.633756 0.24829692 0.6586011 0.25947446
0.21586597 0.7800359 -0.6827845 0.48760122 0.5799757 0.19889764 -0.4092074 -0.11784381
0.5970969 1.293893 -0.29758886 1.2834767 -1.122154 0.08196685 -0.4402578 -0.98114866
1.3231436 0.68716884 1.1205627 -0.65089273 -0.549201 -1.1846421 -0.7366639 0.52780694
-0.23526758 0.3037496 -0.66734433 -0.455043 0.11757957 -0.5355975 -1.793593 -0.37065727
0.14551763 -1.0341356 0.11392192 0.24273562 -1.2667779 -1.3862256 -0.3973024 -0.043723762
-0.52016574 0.3395479 0.8262561 0.928646 0.5515289 0.26318595 -0.81733084 -0.8106371
2.3903692 0.06267945 0.948803 0.9978175 -0.91488814 -1.646301 -0.47547904 -1.1200893
00000000: 69b8 663f 6117 acbe 804c af3e 2978 a2bf
00000010: d314 ae3f 2ad4 b7bf 855f a53e 3307 1bc0
00000020: 13a8 dd3e b7f8 48bf 0218 073f bd27 d9be
00000030: c9c2 25bf b149 7fbf 1e59 76bf f354 603f
00000040: 6694 93be 1dac 83bf fce7 fc3e e98c 0c40
00000050: f425 be3f 7a24 b4bf 9e37 483f 5b58 a23f
00000060: 932d 0840 0931 033d e390 acbf c27e 693f
00000070: e1fb 653e 33ad 873f 2eb4 d6bd b159 4c3c
00000080: fa58 b43f d654 1140 b4b2 eb3f e0a8 d93f
00000090: 7f41 a53f 7ad4 f2bf bb90 09bf 4748 953f
000000a0: c67b cfbe 9305 a93f c3e3 e9bf 031c e13f
000000b0: 6e3d 113d d225 c33f 23d7 d73d acf0 f73d
000000c0: c4be bb3f d8b1 ba3f ce76 06c0 382c 5cc0
000000d0: 82df 7e3f e337 e43d eae3 283b a23f 633f
000000e0: 9a5f 0340 9016 6d3d 2e40 b9be 9dea ddbf
000000f0: 3d48 783f aea4 d2bc 9d5f 10be 91ba 56bf
00000100: a8a1 c83f 0435 003e a2c9 46bf d8ea 773f
00000110: 9e4d b93f 1178 e8be ed40 c63e dc43 3fbf
00000120: 5802 153f ca8e 923f f795 873f cfd8 1240
00000130: c6d5 4b3f dd8e 62bf e107 b5bf d607 8ebf
00000140: 6152 aabf 4146 05bf 19e1 893f a4c3 ecbf
00000150: 6f14 bebe fb8d 5e3f 9614 e53f c8c2 b23b
00000160: 4f5f ab3f 285d 3c3f 801d c13e 900a 57bf
00000170: a76a 02bf 172e 0abf d831 6e3f 7ae2 19bf
00000180: 7bd4 d1bc bb40 93bf 90a2 323f 850b 273f
00000190: 7318 18c0 456d 63bf b6e6 383d 9afe bd3f
000001a0: ed86 a4bf c3ea c93f 41ae a0be 2ff0 38bf
000001b0: c714 243f f448 923e 0d6a a83e b536 27bf
000001c0: 283a 393e b1ab 53bf 0230 eabe a87a 8b3e
000001d0: c0bb 90be 821f 04bf c4f3 4c3f 8551 123f
000001e0: daf6 283f abeb c83d 19e9 e3bf a85f b93e
000001f0: 0a3a 383f 510d 9abe 63b8 b43f beff f4bd
00000200: fb42 c8bd d210 8ebf d8ee 05bf bedc f43f
00000210: 61ff ecbe 3b30 a4bf 0e13 1d3e 6bfa 3f3f
00000220: 2e02 d9bc ce93 0cbd 2d8b 6d3f 3538 60be
00000230: 39ad 6c3f f527 413f e286 a2bf e51b 3c3f
00000240: ddb3 96be d0b8 c3bf 84a7 2cbe 0c71 dabe
00000250: dac2 04bf dcc8 1d40 ffd1 013e 8197 9abf
00000260: 27a1 2fbf 6714 64bf 05d2 95be 79fc 323e
00000270: 6692 fbbe 0f54 513e 2820 eb3e 91c4 453e
00000280: a743 f5bd 1aed 923e b983 dd3e 94e0 b83f
00000290: a1ca 80bf fb0c 313d d4d5 323e 9ad9 7abf
000002a0: 8040 303e 224e 5e3f 2001 af3e 23a9 9e3e
000002b0: 6a8c 473f 5bbf 183f ca13 7a3f 96b1 4d3e
000002c0: 6d18 7c3d f3d9 c13f e3f0 313f 5257 a73f
000002d0: c5a8 5fbf 85e7 97bd 48e4 0240 9d3d 973f
000002e0: 3577 a3bf 7d73 26bf 3870 3d3b ad93 ca3f
000002f0: 00b2 b93e a3cb ed3e 0119 b53f f098 4c3e
00000300: f0c0 cebf 57ce 56bf eb59 0040 87af 13bf
00000310: d53d 223f 8c41 7e3e 159a 283f d6d9 843e
00000320: f80b 5d3e 6fb0 473f f7ca 2ebf dea6 f93e
00000330: 4a79 143f d3ab 4b3e a283 d1be 1858 f1bd
00000340: 58db 183f 499e a53f 915d 98be f748 a43f
00000350: bea2 8fbf 3cde a73d 7869 e1be 8f2c 7bbf
00000360: c55c a93f 4cea 2f3f 996e 8f3f e8a0 26bf
00000370: 7098 0cbf 5aa2 97bf 0196 3cbf 5b1e 073f
00000380: fce9 70be 1185 9b3e 14d7 2abf 65fb e8be
00000390: 8fcd f03d eb1c 09bf 7594 e5bf cac6 bdbe
000003a0: 9302 153e 8e5e 84bf e54f e93d b08f 783e
000003b0: c725 a2bf d76f b1bf 386b cbbe b017 33bd
000003c0: 9529 05bf 39d9 ad3e 8585 533f bfbb 6d3f
000003d0: ff30 0d3f 4fc0 863e 983c 51bf ea85 4fbf
000003e0: cffb 1840 155e 803d c1e4 723f f870 7f3f
000003f0: 1c36 6abf feb9 d2bf fd71 f3be 165f 8fbf

pool.weight_ih_l0 f4 [50, 20]
-0.09729657 0.20548135 -0.14860979 -0.06995576 -0.12801878 0.115960486 0.071368404 -0.111036964
0.006829572 -0.08307238 -0.18938328 0.013320562 0.09012581 0.011214752 -0.13752997 -0.24991444
0.04702068 -0.047086176 0.13003767 0.09355208 0.07949849 -0.027538614 0.09138254 0.13378397
0.12511921 0.06721194 0.054619826 0.03315387 0.18774065 0.014189768 0.062117964 -0.031800676
-0.05886178 -0.056583107 -0.058182634 0.14627911 0.017112197 -0.09421513 -0.030229816 -0.13863605
0.11643573 0.05548748 0.10319525 0.1516121 0.12129408 0.06636195 0.07637389 -0.0014719139
0.023286464 0.012115577 0.123878464 -0.116729535 0.1508357 0.02181802 0.10556761 0.1274338
0.17165832 -0.104780406 -0.020840712 -0.00012910036 -0.008520459 0.121546365 -0.11912535 -0.009321633
-0.10973404 -0.07414895 0.11322886 0.0051419795 0.046129324 0.07273552 0.10953248 -0.10916304
0.023421112 0.0414748 0.10159871 -0.002849039 0.11822629 0.12624839 0.11829517 -0.07950866
-0.014326896 -0.10792176 -0.051597018 0.027852856 -0.034471955 0.07606195 -0.18424365 0.0566434
0.09401111 -0.09933838 0.14209732 -0.01400428 -0.04609525 0.04560669 0.0070798593 0.09354622
0.06671306 -0.06494143 -0.0148722725 0.002099315 -0.009476977 0.0679597 0.020982815 -0.122860916
-0.02126559 0.005085911 -0.066045 0.018240077 -0.08671291 -0.0024461034 -0.000688301 -0.04093173
-0.049484834 0.04192081 -0.17098075 0.1799871 -0.099672146 -0.047527805 0.11384823 -0.077401504
-0.1514488 0.017837988 0.096481316 0.022658989 -0.20196198 -0.11228192 -0.0033631509 -0.0817009
0.03221806 0.055507876 0.014554847 0.0919403 -0.11534597 -0.13611434 -0.045371365 -0.26704878
-0.28580722 0.055437945 -0.07170528 0.12175796 0.025530813 -0.14634754 0.10966472 -0.018671235
-0.11160488 0.09808737 0.092297874 0.024138756 -0.17172158 -0.058310855 0.010066624 0.051380597
0.12586828 -0.03213609 -0.0810875 -0.06407117 -0.060800385 0.08855092 -0.05274416 -0.075066246
0.023656385 -0.017942542 -0.05892442 -0.11897554 -0.12155548 -0.15306896 0.1815315 -0.033070285
-0.19723083 0.07270561 0.10554601 0.17086253 0.016073199 -0.079901576 0.00897689 -0.07983091
-0.21275605 0.19896422 0.1634847 0.0158106 0.06777101 -0.09252861 -0.009077642 -0.033602197
-0.11128389 -0.115000434 -0.029250434 0.028673565 -0.04479628 0.08211832 -0.0015575154 0.06041522
-0.15700865 -0.090553276 -0.06800539 -0.038902096 -0.12909052 -0.094617374 0.07971947 -0.014267834
-0.025968488 -0.07112234 0.138389 0.03241379 -0.12637722 -0.10535712 0.17579332 0.06518025
-0.15148248 0.0025540818 0.033106446 0.044327166 -0.13045517 0.0029095858 -0.17850539 -0.104701914
-0.18255672 -0.033192605 0.035592433 -0.06998474 0.07819683 0.023622457 0.0404361 0.17034596
0.06418191 -0.097952165 0.116254956 0.09949425 0.053923797 0.008167424 0.066202804 0.073410735
0.020010948 0.097604334 0.09231456 0.26733908 0.27597976 0.0020213088 -0.15327436 0.097296774
-0.02740686 0.023438048 0.10169702 -0.05018488 0.019184858 -0.06115016 0.02440079 0.021310605
0.1403826 0.0770339 -0.06522367 -0.16094872 0.047792602 0.101847365 0.06011184 0.12551636
00000000: 6d43 c7bd b469 523e 2a2d 18be f744 8fbd
00000010: 5b17 03be b17c ed3d 9929 923d 5967 e3bd
00000020: 9aca df3b da21 aabd b1ed 41be 7d3e 5a3c
00000030: e193 b83d 14be 373c a8d4 0cbe 92e9 7fbe
00000040: c298 403d 6fdd 40bd 9828 053e 3c98 bf3d
00000050: 1bd0 a23d a998 e1bc c526 bb3d aafe 083e
00000060: 401f 003e 6aa6 893d 0ab9 5f3d 5acc 073d
00000070: 163f 403e 337c 683c 686f 7e3d 6d41 02bd
00000080: 0d19 71bd b0c3 67bd ea50 6ebd 31ca 153e
00000090: e12e 8c3c ddf3 c0bd 85a4 f7bc 9cf6 0dbe
000000a0: db75 ee3d d746 633d 0858 d33d 3440 1b3e
000000b0: 0869 f83d c6e8 873d ea69 9c3d 3ced c0ba
000000c0: 41c3 be3c 6a80 463c feb3 fd3d e50f efbd
000000d0: ac74 1a3e b4bb b23c d533 d83d 027e 023e
000000e0: 33c7 2f3e 1c97 d6bd 24ba aabc 1d5f 07b9
000000f0: 6599 0bbc 4ded f83d fef7 f3bd c3b9 18bc
00000100: 3ebc e0bd 68db 97bd 88e4 e73d 0d7e a83b
00000110: 1af2 3c3d 5cf6 943d 9152 e03d df90 dfbd
00000120: a2dd bf3c 7be1 293d fc12 d03d f1b6 3abb
00000130: a020 f23d 4247 013e bd44 f23d 70d5 a2bd
00000140: 5bbb 6abc 1506 ddbd 6557 53bd ac2b e43c
00000150: 7732 0dbd 5ec6 9b3d 5eaa 3cbe e902 683d
00000160: e688 c03d ec71 cbbd f681 113e 3572 65bc
00000170: 5fce 3cbd 15ce 3a3d 2afe e73b 2995 bf3d
00000180: dba0 883d 0300 85bd d5aa 73bc a994 093b
00000190: 5345 1bbc 752e 8b3d 27e4 ab3c 819e fbbd
000001a0: 2d35 aebc b7a7 a63b 9a42 87bd 376c 953c
000001b0: 8a96 b1bd ce4e 20bb 196f 34ba 08a8 27bd
000001c0: 9cb0 4abd 28b5 2b3d 9415 2fbe 8a4e 383e
000001d0: e920 ccbd 84ac 42bd 4329 e93d ae84 9ebd
000001e0: 6515 1bbe f920 923c ff97 c53d 589f b93c
000001f0: 1fcf 4ebe 10f4 e5bd 4f68 5cbb cd52 a7bd
00000200: 16f7 033d 3a5c 633d 7477 6e3c 324b bc3d
00000210: 823a ecbd 8f61 0bbe 53d7 39bd 9eba 88be
00000220: 5355 92be e612 633d 38da 92bd 3d5c f93d
00000230: ff25 d13c 21dc 15be e697 e03d 6bf4 98bc
00000240: 1991 e4bd 08e2 c83d ab06 bd3d a4be c53c
00000250: c8d7 2fbe 5dd7 6ebd 7bee 243c 7674 523d
00000260: 9de3 003e 22a1 03bd 3411 a6bd bf37 83bd
00000270: d309 79bd 2f5a b53d 430a 58bd 55bc 99bd
00000280: 09cb c13c 3dfc 92bc bc5a 71bd 73a9 f3bd
00000290: 14f2 f8bd 1cbe 1cbe 65e3 393e b574 07bd
000002a0: e1f6 49be aee6 943d 8228 d83d 96f6 2e3e
000002b0: f1ab 833c 70a3 a3bd ce13 133c 637e a3bd
000002c0: b9dc 59be 47bd 4b3e 8868 273e 3b85 813c
000002d0: 87cb 8a3d a47f bdbd 64ba 14bc 75a2 09bd
000002e0: cfe8 e3bd 5985 ebbd 9b9e efbc d3e4 ea3c
000002f0: 4e7c 37bd a62d a83d 8b25 ccba f375 773d
00000300: e0c6 20be ff73 b9bd 6946 8bbd ce57 1fbd
00000310: 4e30 04be c1c6 c1bd f643 a33d a2c3 69bc
00000320: debb d4bc 97a8 91bd d9b5 0d3e 52c4 043d
00000330: 0869 01be 79c5 d7bd 2a03 343e 397d 853d
00000340: 391e 1bbe 6262 273b a09a 073d 6790 353d
00000350: 0a96 05be c0ae 3e3b 1eca 36be f56d d6bd
00000360: 26f0 3abe f8f4 07bd 5fc9 113d 2954 8fbd
00000370: a925 a03d e283 c13c 53a0 253d 2c6f 2e3e
00000380: ce71 833d 259b c8bd 1417 ee3d a4c3 cb3d
00000390: 33df 5c3d a9d0 053c 5695 873d 5e58 963d
000003a0: 00ee a33c c8e4 c73d 6b0f bd3d abe0 883e
000003b0: 384d 8d3e ef77 043b f4f3 1cbe 8843 c73d
000003c0: 5a84 e0bc 2601 c03c 8746 d03d a98e 4dbd
000003d0: 9029 9d3c 9778 7abd 2ae4 c73c 9493 ae3c
000003e0: 75c0 0f3e f3c3 9d3d fd93 85bd becf 24be
000003f0: 2dc2 433d 5a95 d03d d537 763d 5c87 003e

pool.weight_hh_l0 f4 [50, 50]
0.12122444 -0.047561526 -0.016713655 0.0019269692 -0.012970799 0.03000382 0.14715217 -0.036526993
0.13861136 0.18581353 -0.097977005 0.022779673 0.117369555 -0.010597441 -0.01941068 0.12359051
-0.14444752 -0.11326484 -0.0705282 -0.054360595 -0.06809199 -0.022527633 0.061092887 0.13212147
0.06745243 0.019662568 0.0031680712 -0.038588434 -0.059839793 0.049912572 0.095726505 0.09119517
-0.14213032 -0.08052317 0.024621138 -0.11748194 0.08439336 -0.017909143 0.08815568 0.18275248
0.06251532 -0.16255103 0.020999685 -0.10214 0.0930284 0.10635831 -0.01538761 0.08560825
-0.078216486 -0.07572097 0.06510782 -0.034796853 0.11848799 -0.037631672 -0.004164564 -0.20426908
-0.00035292518 -0.050192602 0.08825331 -0.124167494 -0.1630264 -0.032741938 0.08103086 0.054596376
-0.018750576 0.12255187 -0.012683041 -0.05201486 0.17960839 -0.016041588 0.05728861 0.2030664
-0.13279918 0.025405876 0.018199783 0.06653541 0.08601374 -0.100781694 -0.017126573 -0.076789014
0.017448287 -0.005412456 0.14092761 -0.003738661 0.028075159 -0.027794104 -0.06813035 -0.048471075
-0.0035369876 -0.089721665 0.1167541 -0.04188979 0.12738247 0.0027961219 0.10381691 -0.1690921
0.041557286 0.05511003 -0.06298935 -0.04348119 0.058700573 0.033776324 0.048851945 0.22636876
0.074749716 -0.052248504 -0.05691165 -0.039350484 -0.027692495 -0.031590443 -0.018525386 -0.0987805
0.05665441 -0.025102027 -0.114981085 0.1400764 0.019190343 0.055686697 0.09576673 0.13380295
0.14106 0.061804503 -0.022436824 0.08248597 0.054108474 -0.079777084 0.040645134 -0.018415537
-0.19288991 -0.121227354 -0.19368787 0.032810006 0.15983827 0.010454978 -0.09422594 -0.107623786
0.019471526 0.13054869 0.049680676 0.07100521 -0.066644855 0.099475324 0.061639544 -0.042933334
0.14398746 -0.16127823 -0.030851884 0.16912633 0.06035906 -0.13508515 -0.27704495 -0.097219415
-0.06508148 -0.047016237 0.07887793 0.14741772 0.07638747 -0.09276279 0.020465175 0.08100425
-0.035274573 0.16087848 0.09714405 -0.11740125 0.048578802 0.054832026 -0.035998087 0.14017063
-0.063916385 -0.11223367 0.10391616 -0.17493403 0.15408559 -0.050274737 0.09569859 -0.031920627
0.08976367 -0.12949575 -0.08458656 0.073495135 0.14888534 0.04994481 -0.091300875 0.08497568
0.1266465 -0.00012648877 -0.11569837 0.001975089 -0.096901774 0.044266444 -0.0054378062 0.011659332
-0.078652464 -0.12952189 -0.08965884 -0.007097308 0.049996626 0.07552184 0.0616668 0.05951659
-0.17119282 -0.04893852 0.13496163 -0.078315 0.11281062 -0.025244657 -0.092846885 0.06047906
-0.0061200755 0.10020627 0.045290835 0.13439013 0.06240731 0.05550748 -0.056931652 -0.03436902
-0.033559766 0.049624108 0.09145184 0.10492296 0.035865456 0.029246928 0.07105838 -0.10765597
-0.08784964 -0.04319061 -0.026492214 -0.11378845 -0.15288685 -0.072338484 0.11138566 -0.13812913
0.10227397 0.103810735 -0.0296074 -0.07673909 -0.11261885 -0.0077587985 0.11745941 -0.13588451
0.059282705 -0.09327931 -0.06875982 -0.055114757 0.18148433 0.012742576 0.076699115 -0.14592478
0.18970312 0.16643894 0.0687353 -0.013417295 -0.027494991 0.054066658 0.119273745 -0.13393566
00000000: 8544 f83d e0cf 42bd 13eb 88bc 5b92 fc3a
00000010: 7983 54bc 92ca f53c 0faf 163e 549d 15bd
00000020: 23f0 0d3e e745 3e3e 2ba8 c8bd 709c ba3c
00000030: 735f f03d e4a0 2dbc 2503 9fbc 051d fd3d
00000040: 0dea 13be 65f7 e7bd 1771 90bd 37a9 5ebd
00000050: d073 8bbd df8b b8bc 893c 7a3d da4a 073e
00000060: 8024 8a3d 6513 a13c 6a9f 4f3b e80e 1ebd
00000070: 921a 75bd 2071 4c3d 420c c43d 89c4 ba3d
00000080: 9c8a 11be 55e9 a4bd 45b2 c93c 5f9a f0bd
00000090: 6dd6 ac3d 32b6 92bc f78a b43d 7723 3b3e
000000a0: 0808 803d c773 26be 8807 ac3c c72e d1bd
000000b0: ac85 be3d 63d2 d93d 501c 7cbc 6153 af3d
000000c0: f72f a0bd 9913 9bbd 4057 853d 2587 0ebd
000000d0: d5a9 f23d ab23 1abd e576 88bb ea2b 51be
000000e0: d108 b9b9 c296 4dbd 27be b43d 874b febd
000000f0: 65f0 26be 691c 06bd 82f3 a53d 73a0 5f3d
00000100: cf9a 99bc 7afc fa3d 88cc 4fbc 890d 55bd
00000110: 43eb 373e a669 83bc 76a7 6a3d a3f0 4f3e
00000120: 82fc 07be fc1f d03c b617 953c b843 883d
00000130: f927 b03d a266 cebd 074d 8cbc 8f43 9dbd
00000140: b6ef 8e3c f95a b1bb 544f 103e 5304 75bb
00000150: e0fd e53c 76b0 e3bc ed87 8bbd 9b89 46bd
00000160: cecc 67bb febf b7bd c61c ef3d a194 2bbd
00000170: 8d70 023e 243f 373b f69d d43d 7b26 2dbe
00000180: f937 2a3d 0ebb 613d 8f00 81bd 5519 32bd
00000190: 0370 703d 0b59 0a3d fa18 483d 36cd 673e
000001a0: 6116 993d 8702 56bd 311c 69bd f92d 21bd
000001b0: 5fdb e2bc fb64 01bd 8dc2 97bc 6e4d cabd
000001c0: 740e 683d c4a2 cdbc 347b ebbd 3070 0f3e
000001d0: 1135 9d3c bc17 643d 5921 c43d a403 093e
000001e0: 0872 103e b826 7d3d 6ecd b7bc 67ee a83d
000001f0: d9a0 5d3d 2b62 a3bd 837b 263d 2edc 96bc
00000200: ef84 45be 0c46 f8bd 1d56 46be c963 063d
00000210: a5ac 233e 5b4b 2b3c 88f9 c0bd dc69 dcbd
00000220: c082 9f3c 8eae 053e f77d 4b3d 2e6b 913d
00000230: 197d 88bd b8b9 cb3d bf79 7c3d ddda 2fbd
00000240: 7371 133e 1f26 25be 17bd fcbc 742f 2d3e
00000250: 103b 773d c353 0abe d6d8 8dbe f91a c7bd
00000260: 7049 85bd 1994 40bd c18a a13d acf4 163e
00000270: 0971 9c3d 6bfa bdbd 95a6 a73c 8ee5 a53d
00000280: 127c 10bd 54bd 243e 76f3 c63d 1170 f0bd
00000290: 91fa 463d 8c97 603d bb72 13bd e488 0f3e
000002a0: 98e6 82bd c4da e5bd ffd1 d43d e821 33be
000002b0: 9dc8 1d3e e2ec 4dbd 9ffd c33d 34bf 02bd
000002c0: 04d6 b73d 899a 04be b83b adbd 9e84 963d
000002d0: 6675 183e ee92 4c3d f4fb babd bb07 ae3d
000002e0: 9faf 013e 12a2 04b9 44f3 ecbd 7f70 013b
000002f0: 7074 c6bd bb50 353d a02f b2bb c806 3f3c
00000300: 8b14 a1bd 63a1 04be 0e9f b7bd 8990 e8bb
00000310: 43c9 4c3d 32ab 9a3d 5496 7c3d abc7 733d
00000320: 2c4d 2fbe c273 48bd 6233 0a3e 9d63 a0bd
00000330: 4109 e73d e2cd cebc 8226 bebd e4b8 773d
00000340: ea8a c8bb f238 cd3d e282 393d 919d 093e
00000350: cf9e 7f3d d05b 633d 2a31 69bd 88c6 0cbd
00000360: f775 09bd a642 4b3d 1a4b bb3d d9e1 d63d
00000370: a8e7 123d 4197 ef3c 0e87 913d bc7a dcbd
00000380: 83ea b3bd a3e8 30bd 3306 d9bc eb09 e9bd
00000390: 5f8e 1cbe 3326 94bd 2a1e e43d b971 0dbe
000003a0: 0475 d13d b99a d43d 388b f2bc 6229 9dbd
000003b0: b6a4 e6bd 853d febb 8f8e f03d 4f25 0bbe
000003c0: 6cd2 723d 3909 bfbd f3d1 8cbd 03c0 61bd
000003d0: 07d7 393e 3dc6 503c 6d14 9d3d 4e6d 15be
000003e0: 8941 423e f86e 2a3e 18c5 8c3d 37d4 5bbc
000003f0: 2d3d e1bc 0075 5d3d cb45 f43d 6e26 09be

classify.weight f4 [1, 50]
-0.08242342 0.07048729 0.107938364 0.05764113 0.17931376 -0.0047111046 -0.24968244 -0.02626457
-0.2472858 -0.055818543 -0.23896752 0.22390155 0.23265676 -0.022703595 -0.2077535 -0.2963381
0.23516414 0.14606272 0.14878595 0.19826765 0.18603598 -0.111778796 0.03522677 -0.14368393
-0.25818136 -0.076591395 0.108633086 -0.23946689 -0.34301192 0.20919433 -0.23876187 -0.0033153824
-0.1841968 -0.11092897 0.091951154 -0.2631326 -0.1931507 0.08426887 0.27479547 -0.17874725
0.21792711 0.28984803 -0.16048215 0.009970819 0.116950005 -0.14905758 -0.2480506 0.110570826
0.26443717 0.16082487
00000000: 9ccd a8bd a45b 903d ca0e dd3d 1b19 6c3d
00000010: 079e 373e 9c5f 9abb c1ac 7fbe cc28 d7bc
00000020: 7d38 7dbe fca1 64bd e7b3 74be 7346 653e
00000030: 933d 6e3e e4fc b9bc 55bd 54be a1b9 97be
00000040: dece 703e 7791 153e 585b 183e ad06 4b3e
00000050: 3780 3e3e 48ec e4bd f249 103d e121 13be
00000060: 5930 84be f3db 9cbd 067b de3d cf36 75be
00000070: 429f afbe 0a37 563e fe7d 74be e346 59bb
00000080: 169e 3cbe ba2e e3bd e350 bc3d 51b9 86be
00000090: 4cc9 45be 2895 ac3d feb1 8c3e 8509 37be
000000a0: 4928 5f3e f666 943e 6f55 24be a55c 233c
000000b0: 7c83 ef3d 8da2 18be fa00 7ebe f572 e23d
000000c0: 4f64 873e 46af 243e
