05-邓家豪/week03/model.pth (torch, 7610 bytes, 4 tensors)

embedding.weight f4 [27, 20]
00000000: 72cf 9bbe 056b 96bf b8f3 adbf c1cd 6fbf
00000010: cb7d 683e 3856 84be f49e a8be 2346 d6bf
00000020: 7e65 603f 9e99 4ebf 25f2 ab3f bb7c 7ebf
00000030: 26ae 153f 8dc5 003f de8b 783f 70ea b23f
00000040: 3bcf adbf 6bd6 46be 9862 e0bf 9e30 053f
00000050: 743c 76be 9ca1 bfbf eb3d 6abe c8a5 d0bf
00000060: e5ae 423f 9dd8 be3f 4e3a 50bf b7da 71bf
00000070: 246c 8f3f 337c 96bf 4f0e 8d3f cf9d 6d3d
00000080: e574 a73f 51d4 e3be 80d6 513f c7dd e53e
00000090: d1f9 5ebf 1dbc bdbf bd5a 8fbf f914 863d
000000a0: 28a9 e0be eae8 07c0 68df 9fbf 8865 77bf
000000b0: c8f0 5ebe 454a 863f 8d29 d7bf 22af e23d
000000c0: 5932 2340 af62 c1bd 42be e73f 3144 13bf
000000d0: d525 9fbe 772f e2bd d5d1 cbbd 470d 353f
000000e0: e85a c6bf e441 9cbd 8130 70bf 981d d8be
000000f0: 5c0d 0c3e 37b7 ef3e 1c3c 87bf 154b d83f
00000100: 5cc7 733f 4f8b 9d3e 94fd ae3f dd93 523f
00000110: be94 933d cdd2 23be 5657 943f c69d ac3e
00000120: 6222 4b3d 8f81 cd3e 89ea bf3d 67ee 1c3f
00000130: d1e9 0b40 437b bfbf 44db 4dc0 2038 1c40
00000140: 77d8 25bf 5bba 0dbf 0c69 153d 5fa1 3abf
00000150: bf69 aa3f 614f a2bf 7145 cebf 533b c93e
00000160: c03e b3bf 8fe2 4cbf 9818 2e3f 043a dcbe
00000170: 7d34 313f c7b1 a1bf 0b91 793f a826 9c3f
00000180: 5bcf 8e3f 289c 433f f5bd 043f 8947 6c3f
00000190: a2f2 50be ccc9 15bf b574 c43f 9b49 1b3f
000001a0: 040c d5bf a21f 9cbe b548 8c3e c157 b63e
000001b0: 65c7 5abf 7765 aebf 84bb cbbe 6825 2d3d
000001c0: 2d02 fb3f d353 ac3e ab78 8e3e e3f8 ab3f
000001d0: 3ca3 1a3d 1c22 bc3e daa4 ce3e 0edf 713f
000001e0: 7d19 d63f bfd0 373d f555 2cbf d7a1 2b3f
000001f0: d1cd ec3e 843f 06bf dd49 cbbf b1fb c93f
00000200: a1b8 0fbf 915c 37bd ca44 833e 1bfb a23f
00000210: 0eb1 36bf 0d31 d3bc 3d8e c03d 6951 4a40
00000220: 1350 e5be 7437 5b3f a8aa b93e 6da1 013d
00000230: e32f 85be e20c 933e a258 91be 59d2 463f
00000240: 3320 423f bc9e 0d3f 9ad7 463f 8f0a aebf
00000250: 94d0 f53e 6695 d63e c3d8 0d3f a508 a2be
00000260: f79a 37bf 11f8 da3f 573f 91bf 9022 8ebf
00000270: 13c0 0a3e 5183 833f 6472 7fbf 026b d43f
00000280: e5cd ad3f 0f3d 33bf 4980 a7bd 6ea4 a33f
00000290: f4b0 0540 744e 9b3d 3865 9b3e a6a3 b93e
000002a0: a668 fbbc c2c4 45bd f356 2740 6cd8 7bbf
000002b0: e513 483e abbb 403f 35f1 8ebe f2b8 6d3d
000002c0: 34fc a83e 4c13 bbbf 5e46 0c3e 586d 453f
000002d0: 4c58 0f40 3c57 00c0 4cbe 1bbd 90c1 c03e
000002e0: 3f0f b33f ffef 913d b521 5b3f 35a5 ef3e
000002f0: 66e2 45be add7 743f d063 b2bf 804b 72bf
00000300: 7e10 763f fb28 723f 926d da3f f6be c4bd
00000310: b080 85be 27cd 33bf bd95 f03e 8a93 9abe
00000320: 6c30 c83e 7588 72bf 21f0 cbbd e373 f73e
00000330: 56ff 2cc0 4c3f 99be 62cd 693e 4e18 863f
00000340: 0773 d2be 8443 8bbe 1a14 b1bf 1574 f5bf
00000350: 86c5 1140 dd09 e73f 1659 66bf 84b4 4dbf
00000360: fb5c c93e fb55 96bf b73a 413f 7bec 553f
00000370: d0dd adbd c304 5abf 6ee8 96bf 5be5 4ebf
00000380: d88e 423f 8bff 2cbf 32d0 cc3f 4ee4 8a3f
00000390: e904 fb3e 327d a43f 558f ac3f 2264 6d3e
000003a0: 54b7 c93d edb2 e8bf fe91 ebbf 1a37 1a3e
000003b0: 1f0a bebf a632 f83e b99f 37bf aa95 b53d
000003c0: 754f cabf 108d c53f 2320 6b3f 830b 443f
000003d0: 6236 f23f b557 e13e e1f3 22bf 7322 aebf
000003e0: 748b 203c 01ec 6f3f 7f37 913f f051 9abf
000003f0: a17a c7bd 5230 1fbe 7cec 86be fad6 be3d
-0.30431706 -1.175141 -1.3590002 -0.9367333 0.22704236 -0.2584703 -0.32933772 -1.6740154
0.87654865 -0.8070315 1.3433272 -0.99409074 0.58468854 0.5030144 0.9708842 1.3977795
-1.3578867 -0.19417731 -1.7530088 0.5202731 -0.24046499 -1.4971194 -0.22875182 -1.6300592
0.7604812 1.4909855 -0.81338966 -0.9447436 1.1204877 -1.1756653 1.1019992 0.058011826
1.3082548 -0.44497922 0.81967926 0.44895765 -0.8709994 -1.4823033 -1.1199566 0.06546969
-0.43879056 -2.123591 -1.2490053 -0.966393 -0.21771538 1.0491415 -1.6809555 0.1106856
2.549948 -0.094426505 1.8104937 -0.57525927 -0.3108355 -0.110442095 -0.09952132 0.70723385
-1.5496492 -0.07629755 -0.9382401 -0.42210078 0.13676971 0.4681947 -1.0565219 1.6897913
0.95226073 0.30770347 1.3671136 0.8225687 0.07206105 -0.15998383 1.1589153 0.33714122
0.049593337 0.40137908 0.09370906 0.61301273 2.186146 -1.4959491 -3.216508 2.4409256
-0.64783424 -0.5536248 0.036477134 -0.7290248 1.3313521 -1.2680475 -1.6114942 0.39303073
-1.4003525 -0.800332 0.6800628 -0.43013012 0.69220716 -1.2632378 0.97486943 1.2199297
1.115703 0.7641015 0.5185235 0.92296654 -0.20405057 -0.5851104 1.5348116 0.6065919
-1.6644292 -0.30492884 0.2739922 0.35613826 -0.854605 -1.3624715 -0.397915 0.042272
1.9610039 0.33657703 0.27826437 1.3435329 0.03775333 0.36744773 0.40360147 0.9448098
1.6726528 0.04487681 -0.6731866 0.67043823 0.46250775 -0.5244067 -1.5881916 1.5779935
-0.56141096 -0.044766013 0.2563842 1.2732881 -0.71363914 -0.025780225 0.0940213 3.161219
-0.44787654 0.8563149 0.36263013 0.03164809 -0.26013097 0.28720766 -0.28387934 0.77664715
0.7583038 0.55320334 0.7767273 -1.3596972 0.48010695 0.41910857 0.5540888 -0.3164722
-0.7172083 1.7106954 -1.1347455 -1.1104298 0.13549833 1.027445 -0.9978392 1.6595156
1.3578459 -0.70015043 -0.08178765 1.2784555 2.0889254 0.07583323 0.3035066 0.36257666
-0.030689549 -0.048283346 2.614682 -0.9837711 0.19538839 0.7528636 -0.279184 0.058037706
0.33004916 -1.4615264 0.13698718 0.7711997 2.2397642 -2.0053244 -0.038023278 0.37647676
1.3989028 0.07125854 0.8559831 0.4680573 -0.19324645 0.95641595 -1.393671 -0.94646454
0.96118915 0.9459378 1.7064688 -0.096067354 -0.26074743 -0.7023491 0.4698924 -0.30190688
0.39099443 -0.94739467 -0.0995791 0.48330602 -2.7030845 -0.29931104 0.22832254 1.0476167
-0.41103384 -0.27199948 -1.383426 -1.917605 2.2776809 1.8049885 -0.89979684 -0.8035357
0.3932875 -1.1744989 0.75480217 0.83563966 -0.08489573 -0.85163516 -1.1789682 -0.8081872
0.7599921 -0.6757743 1.6001036 1.0850923 0.49027184 1.2850707 1.3481241 0.23182729
0.0984942 -1.8179604 -1.8403928 0.15060082 -1.4846839 0.48476142 -0.7172809 0.08866437
-1.5805498 1.5433674 0.9184591 0.76580065 1.8922846 0.44012228 -0.6365338 -1.3604263
0.009798873 0.9371949 1.1345061 -1.2056255 -0.097401865 -0.15545776 -0.26352298 0.09318347

rnn.weight_ih_l0 f4 [20, 20]
00000000: 8a40 3e3e 1b1f a5bd cc20 9d3e 0327 933e
00000010: 11dc a3bd 4ac5 95be d04f b83d ab3e 603e
00000020: 057b cfbe 01cb 0f3e cf54 c83d c0fd 2f3e
00000030: 808a 4bbe 3cf4 9a3c c63a 98be 8898 fdbc
00000040: 9820 943e d819 9a3d 25d5 ca3d c132 b03d
00000050: 1358 27bd b214 e8bd 6a77 e23d d08d 073c
00000060: d956 a13d 2494 edbd 7ce1 8dbd e0a1 143e
00000070: eee9 f33b 328e 42be 11f3 0dbe 9c6a e43d
00000080: 1364 9bbc ee6c 0fbd 5941 d13d f109 253e
00000090: 3957 2dbe 2ba5 093d d06f 0c3e 4594 f8bd
000000a0: d877 a33d 4c04 50be 3c04 c83c fd39 2abe
000000b0: 8c51 70be cacb 2b3d 8429 8cbe 8042 69bd
000000c0: b22f f03d a3ca e2be 656f f73d f120 82be
000000d0: 0777 fa3d 2a99 8abd 0c23 d13d b59e c0bc
000000e0: 30de 91be 8c45 1fbe 91b2 8ebe 4178 13bc
000000f0: 2329 4fbd d8ee 3cbe 5a24 60bd 979c 6dbe
00000100: 6f47 12be 4194 44bb cf7a 1dbe f83f 94be
00000110: 2a74 873d 303e 7bbd 0c04 1abe 7aae 163d
00000120: 8d50 643c bff9 843d f58c 36bd 3def 3d3e
00000130: 5ff0 41be 5c5d 76be ccd7 17be 2f30 6cbd
00000140: a3d7 7e3d 2bb4 a83d 596e abbe 43d1 04be
00000150: 4c77 8d3d 6d0f b43e 60f4 97bd 1b10 b53c
00000160: bcbf d03e 66f3 dbbe 6cda 543e a46f 88be
00000170: 4133 ea3c 3b12 0b3e 3d00 ef3d 6cf7 9a3d
00000180: 76cf 8ebe 2877 aabc 1e5b fa3c 2cbe 283e
00000190: 3f8f f13c 5831 89be 0f34 1fbe 6871 bfbd
000001a0: 9f7d a83d 47fb 1abe 83a4 593d fe23 44be
000001b0: 5320 9e3e 2ddf 2ebe 16c7 c1bc e814 10bd
000001c0: 4bfd 32be 9e74 06be b486 b53c 772d bbbc
000001d0: 2136 5fbe ecbe 74bd 767a 98be 1e57 f53c
000001e0: 7b99 1bbe 4c6b 23be 950a 0ebe b38f 90be
000001f0: 5ebd 65bd b466 c63d df43 98bd 7136 28be
00000200: 16c8 243c 8ccc a2bd 4ff9 e8bd e1b4 dbbd
00000210: 8d2b 7cbe 57f0 a03d 91c1 453e f263 533e
00000220: d827 09be 6d57 a93d 05a4 83be 2723 67be
00000230: 25f5 843d c49e 713e ab32 0d3d 0142 f83d
00000240: ec1b 333e 03c9 debd 7545 573e 270c b13e
00000250: f157 b6bd 9eca 6f3d aaa1 0dbe 9f68 8d3d
00000260: fc3d 293d 4a56 933d 8923 3abd 6c2b 51bd
00000270: 5f7f 423d 1b62 7c3e 183d ab3e 577d 85bc
00000280: 8224 cebb 99b7 6d3e 9c15 013e 163c 843e
00000290: 8888 63bc d272 503e 6312 f93d 4eab 123d
000002a0: 3d93 c23c 1fdb ba3e d49f 20be 5445 803e
000002b0: c17d a1bd 1e8f 013e e33b 503e 3ae1 17bd
000002c0: ea75 4e3e 54f0 bd3d 7af8 823d 006d 08be
000002d0: 8cb4 30bd 87c6 05bd 6264 56be f2e2 eebd
000002e0: 3553 303d 5175 a23e 2e08 853d bb18 83be
000002f0: d613 253e 56f8 8dbe b28e b93d db06 0d3c
00000300: 3274 07bd f76d 373e c6f1 bb3d 6ff1 be3d
00000310: 6007 62be c01f 013c e85f 1bbe f81e 053e
00000320: 22cc 25bd a6c3 8b3c 9b7b 383e f4af 7e3e
00000330: 02ff 34bd d1ac 58be ec75 563e da51 673e
00000340: a827 10bf eec3 633e 48c9 103e b79b b4bc
00000350: 331c a53d 8eb1 c1bc 75c4 6bbe 4765 a0be
00000360: 9125 1a3e f7db 803e e148 f93d bd44 c8bb
00000370: d255 18bd 1098 9fbe 37d3 eebd e3d6 37bc
00000380: 7ed4 423d 9570 a53d 6deb 8ebe 8df9 16be
00000390: 6d0e 8f3c e01b a7be 39f0 3c3e 4cea 873d
000003a0: 75d8 86be 979c 03be f600 063e 9d5c 2abd
000003b0: 5988 55be 8555 d33d b56b a93c 1221 8f3d
000003c0: 9709 5ebd 2325 89be 7da7 d63c 94f2 a0bd
000003d0: 60f6 d9bd a4ef 6e3e 0f3a 8cbd 8f9c e53d
000003e0: 0747 6e3c 1afc 48bd fac5 26bc 6d16 b63d
000003f0: a363 2f3e 966c 8e3e 4bc5 aa3e 94d8 6e3e
0.18579307 -0.080625735 0.30689085 0.287407 -0.08000959 -0.29252082 0.08999598 0.21898906
-0.40523544 0.14042284 0.09781801 0.17186642 -0.19877052 0.018915288 -0.2973234 -0.030956522
0.28931117 0.075244606 0.09903935 0.086034305 -0.04085548 -0.11332072 0.11057933 0.008273557
0.07877893 -0.11600521 -0.06927773 0.14514875 0.007443658 -0.18999556 -0.13862254 0.111531466
-0.018968618 -0.035015993 0.10217542 0.16117074 -0.16927804 0.033604782 0.13714528 -0.12137655
0.07981843 -0.20314139 0.024416082 -0.16623683 -0.23468608 0.041942395 -0.27375424 -0.056948185
0.11727847 -0.44295225 0.12081794 -0.25415757 0.12229734 -0.06767495 0.10211763 -0.023513177
-0.28489828 -0.15553874 -0.2787061 -0.009000839 -0.05057634 -0.18450487 -0.054722168 -0.23204266
-0.14285062 -0.0029995593 -0.15378879 -0.28955054 0.066139534 -0.061338603 -0.15040606 0.036787488
0.01393522 0.06492948 -0.04456802 0.18548293 -0.1893935 -0.24059051 -0.14828414 -0.05766314
0.062217366 0.08237489 -0.33482626 -0.12970452 0.0690752 0.3516802 -0.07419658 0.022102406
0.40771282 -0.42959136 0.20786446 -0.26647675 0.028588893 0.13581173 0.11669967 0.07566723
-0.27892655 -0.020808771 0.030561026 0.16478795 0.02948725 -0.2679546 -0.15547203 -0.093478024
0.08227085 -0.15134917 0.053135406 -0.19154355 0.30884036 -0.17077322 -0.023654502 -0.035176188
-0.17479436 -0.13130423 0.022158958 -0.022848828 -0.21797992 -0.05975239 -0.2978093 0.029948767
-0.15195267 -0.159589 -0.13871224 -0.28234634 -0.056088798 0.09687558 -0.074348204 -0.16427018
0.01005747 -0.079491705 -0.11375677 -0.10727859 -0.24625988 0.07858341 0.19312121 0.20643595
-0.13394105 0.08268628 -0.25711074 -0.22572003 0.0649207 0.2359572 0.03447215 0.12121964
0.1749112 -0.10878184 0.2102259 0.34579584 -0.08903492 0.05854284 -0.13831201 0.069047205
0.04131888 0.07194193 -0.045444045 -0.0510668 0.04748475 0.246468 0.33445048 -0.016295118
-0.006290973 0.23214568 0.126059 0.25827092 -0.013887532 0.203563 0.1216171 0.0358079
0.02375185 0.364953 -0.1568597 0.25052893 -0.07885314 0.12652251 0.20335345 -0.037080027
0.20162168 0.092743546 0.063950494 -0.1332283 -0.043140933 -0.032660034 -0.2093673 -0.1166438
0.043048102 0.3173013 0.06495701 -0.25604805 0.16120848 -0.27728528 0.0906042 0.0086075915
-0.033069797 0.17913042 0.09176974 0.093233936 -0.22073126 0.007881105 -0.15173304 0.13000095
-0.04047788 0.017061066 0.18015902 0.24871808 -0.044188507 -0.21159674 0.20943421 0.22589818
-0.5631051 0.2224271 0.14139283 -0.022046907 0.08062019 -0.023644235 -0.23024161 -0.31327268
0.15053393 0.2516782 0.12172104 -0.00611171 -0.03719122 -0.31170702 -0.1166138 -0.011220667
0.04756593 0.08078114 -0.2791399 -0.14743634 0.017462933 -0.32638454 0.18451013 0.066364855
-0.2633702 -0.12852703 0.13086304 -0.04159223 -0.20852794 0.10319046 0.020681242 0.069887295
-0.054208364 -0.26786146 0.026202912 -0.07858768 -0.106426954 0.23333603 -0.06847011 0.11211502
0.014543301 -0.049068548 -0.010179037 0.08890996 0.17127852 0.2781722 0.33353648 0.23324805

rnn.weight_hh_l0 f4 [20, 20]
00000000: aad9 8b3e b99c 40bd a81c 7cbe 78ef 08bd
00000010: b7b5 8ebe d376 61be 6468 d73d 19cb bdbc
00000020: 54e9 0e3e d71a 8abe c945 5a3e 0acf 41be
00000030: 718d 58be 0e69 963d ca9a f23d 5e68 78bd
00000040: 0f8b 3ebe 9a63 07be 6110 5a3a 5ce3 95bd
00000050: a7db 8c3d a5bb e5bd d1d8 5d3e 1464 583e
00000060: f1a2 27bd 49ca fabd 62fa 1e3d 0db5 cebc
00000070: b776 21bd 71dc 193e 37b3 f1bd 3738 673e
00000080: c158 1d3e c1c4 a13e 306d 493e 3431 f5bd
00000090: 65f3 45be cb8d 7c3e 7314 87be 0299 ed3d
000000a0: cc1f 4ebe f04c d7bc 09f5 b03d b2b0 f93d
000000b0: 11fb f2b9 32b7 833e 5df6 073e dd62 9a3d
000000c0: a2a1 5a3d 4a24 8fbc f0b2 d2be 8fd6 3fbd
000000d0: fca2 a03d dd49 ad3d 83ad 303d 6ccf d6bd
000000e0: 1549 c3bd aebe 933d c586 8cbe 5b51 d63e
000000f0: 1a97 b63d 6c65 0d3e e5de b63e e0c8 293e
00000100: dc4c 1d3e ed34 31be c70e 6a3d c17c 90bd
00000110: 5e94 50bd bd09 05be e944 96bd 5fc2 663d
00000120: 412c 873e 1053 793e e280 9b3d cf71 97bc
00000130: 5d5b b93b 9f3c 013e f3b6 8dbe 7eaf 653d
00000140: a12d 73be 0bbf 6e3d 4108 8f3d e551 4a3d
00000150: 9087 203e 5106 a3bc 96d7 003c e710 94be
00000160: 8709 0fbe 125e ad3d ecb9 5ebe 6767 e13d
00000170: d72d afbd 5e0c 28bd 90b0 0a3d 668f 89bd
00000180: f6c1 2b3e 123a 8b3a cb3b 5e3c dfbc 823e
00000190: 9101 a53d 4338 03be b179 b63e a89b 3fbd
000001a0: dc22 483e a33c 483e 5458 943e c25b 653c
000001b0: 3466 42be 6035 c0bd 5759 2fbe 10b5 063e
000001c0: 17f9 383d e39a 24be 8321 343e 4172 633e
000001d0: 5ec8 b43c d670 0e3e d658 0bbe 5144 6d3e
000001e0: 1bb7 5cbe 7df9 3b3e 07cb 053d 83a6 3d3e
000001f0: 7da3 433e e9b7 153e ca3e a0bd f7cd 30be
00000200: e8d9 e8bd 36b1 94bd e4e5 3ebd fec9 3a3d
00000210: eb9d 183d 24d8 853d 5a71 f23d 9df0 d1bc
00000220: cd4c 223e ffc1 41bd 35a7 0abe f4df 7bbd
00000230: a7e9 573e c7e2 84bd 9aa9 4dbe 4ffd 7abb
00000240: 05eb 8abe f4a7 3f3a d7b9 1cbe d7f2 363e
00000250: df73 2f3e c0b4 91bd 5edf 9a3e 5798 d6bd
00000260: cea9 30be a051 c4bd 12c3 863d a804 4c3e
00000270: acec d4bd 31ff 293e 4157 04be e3f4 8cbd
00000280: d4bf 1b3e 3a06 d33d 175c a5be a61f 4b3d
00000290: 8a10 3fbe 72ce 0abe ae9e 24be 0937 ed3c
000002a0: d253 543d 5958 1c3d ee5a 91bd a095 853d
000002b0: c87d 48bd 19bb 16be 770a c4bd 256b 1b3c
000002c0: d4d5 18be b9ad 063c 2deb f13b fad2 18be
000002d0: b0f1 3ebe 1c00 323d e8e9 323e 3875 2abe
000002e0: cd83 6e3d 36c4 363e de5b 153d d4e2 7ebe
000002f0: 827f 7abe ca34 63be eea7 7ebe 4943 35bd
00000300: 6d66 f23d d25f 193e 06c7 363d e11c 34be
00000310: e251 a13d 9030 363e a736 043e fb35 3f3e
00000320: a840 cf3d 6169 f0bd 1c91 97be f994 21be
00000330: db8a 82bd 221a 72be 4dc8 7abe 11e6 8ebd
00000340: a57f 78bc 41a5 e93d 56ca 533d a5f5 37bc
00000350: 1bf7 31bc 2edb 08be b5e4 1cbe 3c38 0e3e
00000360: 7ee5 25be 9cfb 85be fe7b 353e d139 95be
00000370: 8582 8cbe 95c3 c13d 3dd0 df3d af8c fe3a
00000380: 2f7f 0c3e f019 e73d d3c3 243d 07ff 533e
00000390: 39c7 edbd d2fb 083e cd99 333b 9415 fe3d
000003a0: 1725 5c3d f2d8 313d 058c 4abe 7228 33be
000003b0: 42bd 47bd a614 3d3e 58a6 8dbd 4474 1c3e
000003c0: 5b6a 10be ad76 c8bd 543a 763e c1ca 963d
000003d0: 145b e83d 3335 843e d8a2 6e3d 9bd1 103d
000003e0: dda6 a93d 7aca e9bd 6f68 04be eb68 56be
000003f0: 53a9 413e a305 1c3d f552 383e 2aad f7bd
0.27314502 -0.047024462 -0.24620306 -0.0334315 -0.27873012 -0.22017984 0.10517958 -0.023168134
0.13956195 -0.26973602 0.21315683 -0.18926635 -0.21147706 0.07344256 0.1184593 -0.060646407
-0.18607734 -0.13221589 0.00083184807 -0.07318756 0.06877833 -0.11217431 0.2166474 0.21131927
-0.040926877 -0.12245614 0.038813002 -0.025232816 -0.039419856 0.15025498 -0.11801761 0.22580038
0.15365888 0.31595424 0.19670558 -0.119722754 -0.19331129 0.24663465 -0.2638279 0.116014495
-0.20129317 -0.026281804 0.08640487 0.12191905 -0.00046344896 0.25725704 0.13277574 0.07538388
0.0533768 -0.017473359 -0.41152143 -0.04683548 0.07843587 0.08461354 0.043134224 -0.10488781
-0.09535424 0.07214104 -0.2744657 0.41858944 0.08915539 0.1380822 0.3571693 0.16580534
0.15361351 -0.17305346 0.057143 -0.07055045 -0.050922744 -0.12991996 -0.07337362 0.05633771
0.2640095 0.24348092 0.07592942 -0.018486885 0.0056566433 0.12620781 -0.27678642 0.056075566
-0.23747875 0.05828766 0.06983996 0.049394507 0.15676713 -0.019900473 0.0078639 -0.28919145
-0.13968478 0.08465208 -0.21750611 0.110060506 -0.08553665 -0.04102742 0.03385979 -0.06716804
0.16773209 0.0010622165 0.01356406 0.25534722 0.080569394 -0.12814431 0.35639718 -0.046779305
0.19544548 0.19554381 0.2897364 0.013998928 -0.189843 -0.093851805 -0.17123924 0.13155007
0.045159426 -0.1607471 0.17590909 0.22211553 0.022068199 0.13910231 -0.13608107 0.23170592
-0.21554224 0.18356891 0.032664325 0.1852055 0.19105335 0.14620937 -0.07824476 -0.1726607
-0.11369687 -0.07260363 -0.04660596 0.04560279 0.037259977 0.06535366 0.11838026 -0.025627429
0.1584961 -0.04730415 -0.13540347 -0.061492875 0.21085225 -0.06488567 -0.20084229 -0.0038297956
-0.2713243 0.0007311099 -0.15305267 0.17866074 0.17134045 -0.071145535 0.3024854 -0.10478275
-0.17252275 -0.09585881 0.065801755 0.19923651 -0.10396704 0.16601254 -0.1292391 -0.06882646
0.15209895 0.10303922 -0.3229682 0.04959073 -0.18658653 -0.13555315 -0.16076156 0.028956907
0.05183775 0.038170192 -0.070974216 0.06522679 -0.04894808 -0.1471981 -0.095723085 0.009485994
-0.14925319 0.00822013 0.0073827715 -0.14924231 -0.18646884 0.043457136 0.1747204 -0.16646278
0.058231164 0.17848286 0.036464565 -0.24891216 -0.24462703 -0.22188106 -0.24868748 -0.04425362
0.118359424 0.14977959 0.044623397 -0.17589141 0.07876946 0.17791963 0.12911473 0.18672936
0.10119754 -0.117388494 -0.29602897 -0.15779485 -0.06374141 -0.23642781 -0.24490471 -0.069774754
-0.015167152 0.11408473 0.051706634 -0.011228 -0.010862137 -0.1336486 -0.1532162 0.13888639
-0.16200826 -0.26168525 0.1772308 -0.29145673 -0.27443328 0.094611324 0.1092839 0.0019420589
0.13720392 0.11284244 0.040225815 0.20702754 -0.11610264 0.13377312 0.0027404905 0.124064595
0.05374631 0.043419786 -0.19779976 -0.17495897 -0.048764475 0.18464908 -0.06916493 0.15278727
-0.14103071 -0.097882606 0.24045688 0.07362891 0.11345497 0.25821838 0.05826077 0.035356145
0.0828378 -0.114155725 -0.12930463 -0.2093846 0.18912248 0.038091313 0.18000396 -0.12093575

classify.weight f4 [1, 20]
00000000: c259 d6be 3efa 183e 9435 da3e 8e5f 543e
00000010: 6c6c 013f 9a4f 913e c498 363e 62a3 a1be
00000020: 564d 80be bc1a b93e 718a 03bf 759f 593e
00000030: 0425 7a3e e658 923e 647d d53d 7ddf 6dbe
00000040: 8a06 8b3e 95ff 573e 7968 d3be 9a6e d93e
-0.41865355 0.1493921 0.42619002 0.20739576 0.50556064 0.28381044 0.17831713 -0.31569964
-0.25059003 0.3615321 -0.5138312 0.21252234 0.24428183 0.2858345 0.10424307 -0.23229785
0.27153426 0.2109359 -0.41290644 0.42467195
