233-管国兵/week7/output/model.pth (torch, 960409 bytes, 2 tensors)

embedding.weight f4 [11987, 20]
000000 9c cd 1d c0 ab 5d de be 36 26 48 bf 02 66 82 be
       -2.4656744 -0.43430838 -0.78183305 -0.2546845
000010 77 fc b9 3f 74 93 11 be 56 85 f5 be 39 08 16 be
       1.4530171 -0.14216405 -0.4795329 -0.14651574
000020 8b 39 21 40 ca 03 17 bf 49 06 31 bf f5 e9 d8 be
       2.5191371 -0.58990157 -0.69150215 -0.42365995
000030 f8 d2 db 3f f7 37 83 bf 76 3f 5f be 08 3d 10 bf
       1.7173758 -1.0251454 -0.21801552 -0.56343126
000040 0d e9 dd 3e f3 de de be a5 56 82 3f d4 14 cb bf
       0.43341866 -0.43529472 1.0182692 -1.5865731
000050 ce 8d af 3f a6 40 ba bf 83 08 e9 be 67 6b 1a be
       1.371515 -1.4550979 -0.45514306 -0.15080033
000060 b1 d3 98 bf 34 12 26 bf 38 0b 80 be aa aa c6 3e
       -1.1939603 -0.64871526 -0.2500856 0.3880208
000070 df 49 47 be 80 05 69 bd dc b6 52 3f 03 1b 8b bf
       -0.19461773 -0.05689001 0.8231027 -1.0867618
000080 c6 8b 93 3f 96 47 0d 3f f3 dd f0 3d a6 c3 c8 3f
       1.152703 0.55187356 0.117610835 1.5684707
000090 28 61 d5 3e 28 f9 d8 3d 39 6e 0a bf f1 ab 2e bf
       0.41675687 0.10594398 -0.54074436 -0.6823111
0000a0 ef dc f3 3d f8 32 ee 3c 2b a1 dc bf e1 a0 dc 3f
       0.11907374 0.029077038 -1.7236685 1.7236596
0000b0 a0 c8 74 3f 75 43 b8 bf 26 0c c3 bc ab 5a 15 c0
       0.9561863 -1.4395586 -0.023809504 -2.333659
0000c0 d5 50 83 bf 06 a5 1d bf 8b a1 a5 3a 72 8f c3 bf
       -1.0259043 -0.6157993 0.0012636645 -1.5278151
0000d0 de a9 be 3e de db 12 3c c7 c9 28 3f 49 b8 ec 3e
       0.37238973 0.008963553 0.6593289 0.46234348
0000e0 d1 d8 a6 3f f6 6d a6 bf 20 5f d6 3e 08 30 03 3f
       1.3034917 -1.3002307 0.4186945 0.51245165
0000f0 42 53 99 3f f5 ca 42 3f b9 d6 61 3d 81 7b 5c 3f
       1.1978533 0.7609094 0.055136416 0.8612595
000100 fc b4 03 bf 7d 87 d2 3e 2e 12 28 3f 78 ac 6c bf
       -0.51448035 0.41118994 0.6565274 -0.92450666
000110 69 75 9f 3d b2 e1 a2 bf 54 9c ae bd c7 e6 79 3f
       0.07786066 -1.2725127 -0.08525911 0.97617763
000120 48 66 ef 3d 3f ba 55 3f 2f 7e fa bf 11 86 d9 bf
       0.116894305 0.83487314 -1.9569758 -1.6994039
000130 dc 1c 3c 3f fd 62 9e be de ec 5d 3f f0 24 06 bf
       0.73481536 -0.30934897 0.86689556 -0.5240011
000140 39 b9 2d 40 a4 62 df 3e ae 5e 0d bf bd 3d 07 be
       2.71443 0.43629944 -0.55222595 -0.13207145
000150 4c 4b 74 3f 4c e0 90 3f 48 dd cd 3e c4 00 08 3f
       0.95427394 1.131845 0.40207887 0.5312617
000160 a0 09 ba bf db 82 34 bf 5e dc bb bf 23 25 ad be
       -1.4534187 -0.7051217 -1.4676626 -0.33817396
000170 6f 9a a5 3f 20 23 59 bf e2 10 98 3f 2f 99 db 3f
       1.2937754 -0.8481922 1.1880152 1.7156123
000180 dd fa 61 40 87 e0 c7 bf 21 6f 22 bf 8d 16 59 be
       3.5309365 -1.5615395 -0.6345082 -0.21200009
000190 ca 7f 69 bd da 16 1f bd 2a ee 9d bf 1f fd ac 3e
       -0.057006635 -0.038840152 -1.2338307 0.33786866
0001a0 7d 86 fd 3e 47 8d 8a bf 3c ef 0b c0 5a 3c 0b 40
       0.4951667 -1.0824364 -2.1864767 2.1755586
0001b0 5e 9c 10 3e bd 19 3e c0 56 e3 0e 3f 05 c6 61 be
       0.1412215 -2.970321 0.5581564 -0.22048195
0001c0 97 eb 9f be c4 2e 8b 3f 3d 25 50 3f 19 1d 41 bf
       -0.31234428 1.0873647 0.8130682 -0.75435024
0001d0 1f 1b f8 3f 52 38 9e bb 5c 50 df bf 7e 21 85 3f
       1.9383277 -0.0048284912 -1.7446399 1.0400846
0001e0 0a 02 ce 3f 13 23 51 3f b2 3b 15 3f e5 5e c6 3e
       1.6094372 0.81694144 0.5829421 0.38744274
0001f0 7f f6 a5 3f d7 a5 b3 3f 18 f2 64 be 4c f5 b7 bf
       1.296585 1.4034985 -0.22357976 -1.4371734
000200 77 c6 6f 3e 61 9d 03 3f d8 04 0c 3f ef 80 0c be
       0.23415552 0.51412016 0.5469489 -0.1372106
000210 aa eb 24 3e 18 43 0a bf f4 da d8 bd b1 e1 2c be
       0.16105524 -0.54008627 -0.10588637 -0.1688297
000220 e7 9b 69 be 2c 21 c8 3e 76 10 9d 3f 43 63 93 3f
       -0.22813378 0.39087808 1.2270648 1.1514667
000230 ba d9 5f 3d 74 5a e0 3f f9 cb b5 3e a8 fa 21 c0
       0.054651 1.7527604 0.3550718 -2.5309238
000240 69 0f 05 3f 8b e7 17 3f 45 94 91 be 64 be 86 bf
       0.5197664 0.5933768 -0.28433433 -1.0526853
000250 03 f9 3e bf 62 94 1d 3f a3 a2 8b 3f 61 1f a1 3f
       -0.7459871 0.6155454 1.0909008 1.2587701
000260 a8 8c 14 bf 7d c3 16 3f de 17 58 3c cf 26 9b 3f
       -0.58027124 0.5889204 0.013189284 1.2121218
000270 a0 7e 2f bf 66 71 98 bf 83 90 fe bf eb 6c b0 bf
       -0.6855259 -1.1909606 -1.9887851 -1.3783239
000280 95 a9 bb 3e 41 f0 41 bd 00 43 c0 bf e5 cf 76 3f
       0.36652818 -0.047348265 -1.5020447 0.9641097
000290 71 4f 5b bf 83 d6 f7 3e f1 52 9e bf 3a b0 fe 3f
       -0.8566809 0.48405847 -1.2369062 1.989753
0002a0 ae 63 96 3e 94 40 e7 3f e9 60 89 bf bd 32 ae 3e
       0.29372925 1.8066583 -1.07327 0.34023085
0002b0 de 9a a8 bf 6c 4b 73 bf 16 54 fb 3e 22 1e f3 be
       -1.3172262 -0.9503696 0.4908759 -0.47483927
0002c0 bb 95 a6 be 08 97 ff 3e 61 dc 8d bf 1d ba cf be
       -0.3253611 0.49919915 -1.1082879 -0.4057168
0002d0 49 3b c7 bf 87 19 fa bf 08 47 e2 3f 84 4c cc 3f
       -1.5564967 -1.953904 1.7677927 1.5960851
0002e0 61 50 ad bf 75 b3 44 c0 27 34 bb 3f 17 13 01 bf
       -1.3540155 -3.0734532 1.4625291 -0.50419754
0002f0 7b 7b b5 be 7f a9 b6 3f 33 83 84 3f 08 69 a2 3e
       -0.3544577 1.4270476 1.0352539 0.31720757
000300 dc e7 c0 bf a0 4f 13 c0 f2 f2 f8 be 0f dd b2 bf
       -1.5070758 -2.301735 -0.48622853 -1.3973712
000310 7c 00 c4 3e fe c2 14 40 17 3e ae 3f 02 b6 9e 3f
       0.3828162 2.3244014 1.3612698 1.2399294
000320 f5 12 9b bf d9 54 46 bf 77 1e 8d bf ac b2 37 3f
       -1.211516 -0.7747322 -1.1024922 0.71757007
000330 c2 44 11 c0 84 b6 61 bf 35 33 75 be 88 02 2c bf
       -2.2698216 -0.8816912 -0.23945315 -0.6719136
000340 5c 87 e1 be 28 d6 33 3f 8c 73 79 3f 84 19 0e bf
       -0.44048584 0.7024865 0.97441936 -0.55507684
000350 f0 4a 17 3f 42 c9 1b c0 ec e4 f6 bf c9 fd 89 bf
       0.5909872 -2.4341588 -1.9288611 -1.0780574
000360 d1 cc 27 bf 9f f1 08 40 e1 12 4f 40 81 ff 4f 3f
       -0.655469 2.1397474 3.2355273 0.81249243
000370 b7 68 dc 3f b9 c5 0a 40 68 3d 1d c0 9f 58 59 3c
       1.7219456 2.168318 -2.456873 0.013265758
000380 66 cf 9b 3f 23 71 3e 3e da e2 17 3f 9e 64 29 3f
       1.2172668 0.18597846 0.59330523 0.66169155
000390 7b af 1b be db ac 4a bf 5e 20 0b 3f 9e 6c 1d be
       -0.15203659 -0.79170007 0.54346263 -0.15373465
0003a0 f1 bd 00 c0 9a ab 34 40 f2 81 4c bf aa 24 7c bf
       -2.011593 2.8229737 -0.7988578 -0.98493445
0003b0 2b c4 ce be 93 0f b4 be c4 98 c5 bf b6 d0 85 be
       -0.4038404 -0.35168132 -1.5437245 -0.26135796
0003c0 e5 32 28 3f ea 2e 92 3d af 32 96 be 6e 55 1f 3e
       0.6570266 0.071378544 -0.29335544 0.15559933
0003d0 5d a3 af 3f ca f7 6a bf af f8 6b bf f5 8c 23 3f
       1.372173 -0.91784346 -0.92176336 0.6388696
0003e0 a6 90 01 c0 d2 37 8e bf 80 f2 45 be e4 18 2a bf
       -2.0244536 -1.1110785 -0.19330788 -0.6644423
0003f0 69 6a 12 3f 28 86 b6 be b4 f3 ed bf 19 02 f8 be
       0.5719362 -0.35649228 -1.8589997 -0.484391

classify.weight f4 [1, 20]
000000 7a 34 e6 be 02 39 8b bf ab 13 ac 3f 3b 1f 72 3f
       -0.4496191 -1.0876772 1.3443502 0.94578904
000010 cc af 41 bf 3f a9 a9 bf 13 2e 83 3f 20 4a 9e bf
       -0.7565887 -1.3254775 1.0248436 -1.2366371
000020 d1 50 4d 3f 5e 1d 45 3f e7 f7 7e 3f e1 ce b2 3f
       0.8020144 0.76997936 0.9959702 1.3969384
000030 17 90 18 be 7f 9e 87 bf a9 84 b1 bf 65 0f 9a bf
       -0.14898716 -1.0595244 -1.386861 -1.2035948
000040 b0 32 a8 bf 1c 6b 71 3f da 2e 7c 3f 8b 83 5b 3f
       -1.3140469 0.9430406 0.9850899 0.85747594
